ContrastiveModel/diet_food_contrastive_model.pth (torch, 923120 bytes, 8 tensors)

proj_d.0.weight f4 [128, 768]
00000000: 69e9 afbc 9032 c93b e56d 173d 7b67 c0bc
00000010: 7e8d 1cbd 2f08 b0bc 6340 143c 8711 c53c
00000020: f82c a4bb 43b2 b6bc bac7 a73c e289 d0bc
00000030: c1fb 09bd fc40 5a3c 7210 b8bc abd1 a8bc
00000040: e20d f83c 39ba fabc 950b e6bb 57f3 843c
00000050: b9ca 1f3a f8c0 563c 4b40 ccbc 37bc 083c
00000060: a7a2 76bc b5cc 933c 8a84 07bd 1193 b0bb
00000070: f3c5 a43c 4c7c 9dbb af93 cdbc d7a1 4dbc
00000080: 060b 56bc 7a55 d1bc 2151 a3bc 80fc 0e3b
00000090: 45d2 153c de99 b0bc 7592 063c 1322 343c
000000a0: ef7b f63b d6aa 4f3c f536 4b3c adc5 36bc
000000b0: 5338 a6bc c24c 383b f834 053d 8d81 4f3c
000000c0: b73f d0bb b95c b83c a508 2a3b 717b d33c
000000d0: da1c 943c 38a6 dd3c f2f9 e03c 84e5 bb3c
000000e0: 9ee7 a6bc ef7a 9d3c 0cc9 7a3c dfdf 0bba
000000f0: b82c 8cbc 83ee dbbb 965c eb3c 8e7f ec3c
00000100: a43c d53b ed55 8e3b 6345 853c 04e8 d9ba
00000110: 27b1 cdbc c33f cb3c 7c6a 143d a157 24bc
00000120: 4c6e 78bb 84a8 d4bb 09f5 d33c bb2d 0f3c
00000130: 95cb d0ba 20b5 fabb 65c7 1c3d 6992 843b
00000140: ee39 9abc 394e 08bc 2b2c 06bd 9742 a73c
00000150: b087 91bc 6b62 51ba ad28 0d3d c5f6 3b3b
00000160: 0982 4abc e062 09bc fcb5 543c 9eb8 773c
00000170: a04d 6cba 7a85 27bd 2d6f f7b9 bacf f2bc
00000180: ac16 8d3c ace9 80bc 8507 4bbb 0435 fc3c
00000190: c008 3ebb d231 fdbc f894 fa3c 487a 2f3c
000001a0: 7f01 2abc 81b5 9f3c a230 e13c ca47 f5bc
000001b0: c26a 9fbc 573e b43b 9d80 143d 0c66 bb3c
000001c0: fba3 2bbc 1bc3 82bb 40da 08bd da2d 15bd
000001d0: 798c ce3c 5f12 143b 6db2 b0bc 743f a63c
000001e0: e802 cebb 34dd 0bbd 4286 e7bb 737b 1ebd
000001f0: cc91 c13c 5e6c f4bb cb7e c13b b61b f03c
00000200: 413f 363b ef88 ebbb 4aec c1bc 5148 83bc
00000210: 8c6b 00bc 082f ecbc af53 8e3c 2a52 05bd
00000220: cbfe ea3c d7d2 0cbd 6479 973b bb3d 093d
00000230: 24b6 96bc 2bfc 39bb 0a6c f1bc c71a 013d
00000240: dcb1 d03c 4b5b e13c 7716 003d f75f 353c
00000250: f473 963c e636 93bc e612 dfbc 35d7 ea3b
00000260: 6565 d03c d02f 103d 3350 51bc 7c01 cf3b
00000270: 722e 203c 973c febb 6c91 4f3b 1719 cebc
00000280: 5069 1abd 8269 363c 8f80 2b3c 7fae bdbc
00000290: 34eb 0f3d 972c 66bc b2ce dfbb 8144 0d3d
000002a0: 50cd 85bc 8ee2 e33c e129 b83b 86c9 1bbc
000002b0: 5295 243c a4d3 e03b b4ca 32bc 5879 f93a
000002c0: a38a db3c b9d1 0abd 6cdd e2bc d1ae b7bb
000002d0: 5fb0 b0bc 1da5 16bd 6712 8fbc 4dbd 7f3b
000002e0: 95e7 c9bc 978f e53c 05f6 d13b bf73 303c
000002f0: 9f65 3c3c ef11 cfbc 901a b73c 0546 0dbd
00000300: 7573 053d bf8f 3fbb b9bb eabc aa53 2ebb
00000310: 8a99 f6bc 5356 253d 8abb bdbb 11e5 1a3c
00000320: d684 9c3b 0ca2 fe3c fcca 403c 1bef d93b
00000330: 10cc 94bc 3ec7 9e3c 3c5d 0b3d 0b5f fd3b
00000340: a361 85bb 2ff8 94bc 70ad b1bb 5b23 0ebd
00000350: f8aa 153d 56a8 f63c 2ee4 123b 23ff d6bc
00000360: 1fef c53c 28d3 573c 04a3 b9bc 54cc 13bb
00000370: 30a4 97bc 392a 273c 7854 c93c 6dd2 d13c
00000380: a08f c6bc 2ea9 b0bc efca 73bc 7a4e aa3c
00000390: 5351 ddbc bced 97bc 47d4 ed3c 3ddf a03c
000003a0: 9fdb 14bd 5c4e 8c3c 2faf febc a51c 03bc
000003b0: 9eb8 dcbc a93d 153d 68a1 83bb 3c62 90bc
000003c0: c1d1 fa3c 06bf acbc 9c0d 21bc e486 623b
000003d0: bcfb 193d b2df aebc ccbc a0bc 7936 8bbc
000003e0: 5320 11bb 0933 023b 453b 063d 725f a7bb
000003f0: fa8b 063c 08b9 b93b 1506 ad3c 6116 f53a
-0.021473603 0.0061400607 0.036970038 -0.023486843 -0.038220875 -0.021488277 0.009048554 0.02405621
-0.0050102435 -0.022301799 0.02048098 -0.025456373 -0.033687357 0.013321158 -0.02246878 -0.02060779
0.030280057 -0.030606376 -0.0070204237 0.016229315 0.00060955767 0.013107531 -0.024933001 0.008345655
-0.015053428 0.018041948 -0.033085383 -0.0053886254 0.02011392 -0.004806077 -0.025094835 -0.012550793
-0.013064152 -0.025553454 -0.019936146 0.0021817982 0.00914437 -0.021557745 0.008213629 0.010994452
0.0075220983 0.012675008 0.0124032395 -0.011155528 -0.02029053 0.0028121923 0.032521218 0.012665165
-0.0063552517 0.022505151 0.0025945094 0.025815697 0.018080164 0.027056798 0.027462933 0.02293659
-0.020374116 0.019223658 0.015306722 -0.00053357886 -0.017111167 -0.0067117824 0.028730672 0.028869417
0.006507473 0.0043437392 0.016268438 -0.0016624932 -0.025108887 0.024810677 0.036234364 -0.010030658
-0.003790754 -0.006489815 0.025873678 0.00873893 -0.0015929813 -0.0076509863 0.038276095 0.0040457738
-0.018826451 -0.008319431 -0.032756966 0.020417495 -0.017764896 -0.00079873827 0.03446262 0.0028681022
-0.012360104 -0.00838539 0.012982842 0.0151197 -0.00090142526 -0.040898778 -0.00047194344 -0.029640067
0.017222725 -0.015736423 -0.0030979824 0.030786999 -0.0028996915 -0.030907545 0.030588612 0.010710306
-0.010376333 0.019495727 0.02748901 -0.029941458 -0.019460086 0.0055005956 0.036255468 0.022875808
-0.010476108 -0.0039905435 -0.033411264 -0.03642068 0.025213467 0.0022593958 -0.021569455 0.020293929
-0.0062869675 -0.034146503 -0.0070655653 -0.03869195 0.023629092 -0.0074592074 0.0059050075 0.029310089
0.0027808698 -0.0071879546 -0.023672242 -0.016025694 -0.007838141 -0.02883102 0.017373888 -0.03254906
0.028685948 -0.03438076 0.004622625 0.033506136 -0.018397398 -0.0028379064 -0.029470462 0.031519677
0.025475435 0.027509352 0.031271424 0.011070243 0.018365838 -0.017970514 -0.027230691 0.007166768
0.025438974 0.035201848 -0.012775469 0.0063173156 0.009776698 -0.0077586877 0.0031672372 -0.025158448
-0.03769809 0.011133553 0.0104676625 -0.023154495 0.035136417 -0.014048717 -0.00683006 0.03448916
-0.016333252 0.02781799 0.0056202267 -0.009508496 0.010045366 0.006861167 -0.010912586 0.0019033356
0.026799506 -0.033891413 -0.027693473 -0.0056055565 -0.021568475 -0.036778558 -0.01746483 0.0039022744
-0.02464656 0.02802257 0.0064075016 0.0107697835 0.011498838 -0.025277106 0.022351533 -0.034490604
0.03258081 -0.0029229966 -0.028653966 -0.002660016 -0.03010251 0.04036553 -0.0057901787 0.009454028
0.0047765775 0.03108313 0.011767145 0.006650818 -0.01816371 0.019382115 0.034024462 0.0077322773
-0.004070477 -0.01818475 -0.0054222867 -0.034701686 0.03654 0.030109566 0.0022413838 -0.026244706
0.024161873 0.013172902 -0.02266074 -0.002255221 -0.018510908 0.010202938 0.02457641 0.025613034
-0.024238408 -0.021565046 -0.014879926 0.020789374 -0.027016317 -0.018545978 0.029031886 0.019637698
-0.03634226 0.017127208 -0.031089393 -0.008002435 -0.026943501 0.036435757 -0.004017044 -0.017624967
0.030617597 -0.02108718 -0.009829905 0.0034565264 0.03759359 -0.0213469 -0.019621275 -0.016993748
-0.002214451 0.0019866845 0.032771368 -0.0051078135 0.008212084 0.0056678094 0.021121064 0.0018698686

proj_d.0.bias f4 [128]
00000000: 8fe9 10bd b4c7 453c 8337 11bc 1916 b03c
00000010: e8ee 573c b3e6 2339 733e 05bc c589 24bb
00000020: 48fe 67bc cb68 dc3c 0430 de3c 5c17 95bb
00000030: be5b e1bc 5a8f ecbc 1811 553b 0907 c93c
00000040: 9930 f4bc 4d28 80bc 6134 c1bc 42fe bc3c
00000050: 8112 d53c 66e5 093d cfc9 ae3c c78f ef3c
00000060: e5f2 023d 72db 053d 2325 0b3c 936e 08bd
00000070: 5b11 09bd a861 c0bc c385 14bc 9349 703c
00000080: dc8f ab3c 1f88 2abc b6c1 483c d11a 4a3a
00000090: c82f aebc 3125 0b3d fa83 20bc 335a 0f3d
000000a0: 0319 a4bb 5ba0 9dbc 3162 13bd 0ea2 ccbc
000000b0: 4b2f 86bc 6e5a 8abc fa52 1b3a c612 13bd
000000c0: 6d52 b83c 5021 8a3c 01c1 063d f020 6f3c
000000d0: 61ca bdbc 1d28 033c 017b 0f3d b16a 373c
000000e0: 297a ed3b 14ca ad3c 2232 143d 85b1 ac39
000000f0: e119 84bc c3ea 6dbc 5c67 17bb 8281 b13a
00000100: 6388 84bc 1442 84bc 1a9b 33bc b152 c4bb
00000110: 131d c0bc 0e0c 77bc df56 353c 3e83 fdbc
00000120: e653 98bc d75a ab3a 17bb cbbc 96ea 04bd
00000130: 2407 47bc 3f09 233c 208c 32bc ae8d 853c
00000140: 047f 54bc 4eab 5cbc 54a9 c13c 5a07 6fbc
00000150: b7eb b7bc 69dd 8e3c bc78 aebc a1a2 f8bc
00000160: 7738 a837 bc09 bb3c cbef db3c 1f2b 38bc
00000170: 2830 903c e84f 22bc f8f0 ac3c 3462 033d
00000180: 8043 03bc 4537 26bb 0fdf 983c 1aa4 503c
00000190: d232 893c fb99 7d3c 17ec c7bc a686 88bc
000001a0: cd60 45bc 2e2d bbbb 9a44 ad3c af51 003c
000001b0: 6bc4 febc 39bd da3c d89a ef3c 08e0 da3b
000001c0: 538c 02bd 21d7 94bc f291 bfbc 217c a1bc
000001d0: 3ebc 97bb 38fd dc3c f4b0 89bc 6090 e43c
000001e0: 3439 8dbb b52f b7bc e8df 4a3a 44e6 95bc
000001f0: 15af 583c 6a42 0bbd 4332 e1bc 8c12 46bc
-0.03537899 0.012071539 -0.008863333 0.021494912 0.013179518 0.00015630834 -0.008132565 -0.002510653
-0.0141597465 0.026905438 0.027122505 -0.004549904 -0.027509566 -0.02887695 0.003251141 0.024539487
-0.02980833 -0.015644217 -0.023584547 0.023070458 0.0260098 0.033666037 0.021336464 0.029243363
0.031969924 0.032679982 0.008492741 -0.033308577 -0.033463817 -0.023484066 -0.009065094 0.014665979
0.020942621 -0.01040843 0.012253216 0.00077096844 -0.021263018 0.033971015 -0.009797091 0.03499813
-0.0050078644 -0.019241503 -0.035982314 -0.024979617 -0.016379973 -0.016888823 0.0005925145 -0.035906576
0.022500241 0.016861588 0.032898907 0.014595255 -0.02316779 0.008005169 0.035029415 0.011194871
0.0072472286 0.021214522 0.036180623 0.0003293866 -0.016125621 -0.014521304 -0.0023102378 0.0013542625
-0.016178316 -0.01614479 -0.010962272 -0.005991303 -0.023451364 -0.015078558 0.011068075 -0.03094637
-0.018594693 0.0013073337 -0.024869485 -0.03245028 -0.012147699 0.009950935 -0.010897666 0.01630291
-0.012969736 -0.013468577 0.023640312 -0.014589155 -0.022451265 0.017439561 -0.021297805 -0.030350985
2.0053454e-05 0.02283179 0.02684774 -0.01124075 0.017601088 -0.009906746 0.021110997 0.032076076
-0.008011699 -0.0025362533 0.01866105 0.012734437 0.016747866 0.015478606 -0.024404569 -0.016665768
-0.012047005 -0.005712173 0.021150876 0.007831975 -0.031099519 0.026701557 0.02924864 0.0066795386
-0.031872105 -0.018168988 -0.023385022 -0.01971251 -0.0046305945 0.026976213 -0.01680801 0.027900875
-0.0043097977 -0.022361616 0.0007739053 -0.018298276 0.013225337 -0.033998884 -0.027489787 -0.012089383

proj_d.2.weight f4 [128, 128]
00000000: 6096 5a3d 8db4 9fbd 4691 0ebd 5097 a1bd
00000010: f805 cc3c 78b6 fe3c 480d 39bd 67df 83bd
00000020: e9d3 97bd 9871 a43d d808 0e3b 6db1 a8bc
00000030: 45a7 6a3d 50b3 943c 916c 733d 6995 803c
00000040: 18c2 9c3c 8331 d63c f47d 55bd caaf 963c
00000050: 33ba 8d3d ea44 7cbc 6aae 813d d36e 0f3c
00000060: 0d15 2bbc bf83 ae3c 0c97 da3c 52a9 983d
00000070: a50e 2fbc 60f6 b3bd 7bb9 03bd 460d 3439
00000080: b93f a4bc f777 5ebd 5550 8bbd 618f e5bc
00000090: a3ce 2fbc bfb7 a6bc 410e 793d 990b 75bd
000000a0: 517d 27bd de44 433d ade1 813d abe1 333b
000000b0: c8e9 183d 1d74 9dbc 493a cbbc 1c27 843d
000000c0: 4deb 2fbd 152f 98bb f495 1b3d c7a0 133d
000000d0: 653c 0ebd 8c33 22bd 19b0 dfbc b9b3 af3c
000000e0: 0bd0 ba3c 9c29 a93d 960b 9b3d f50d 403c
000000f0: c419 ab3c 7bc1 b73c 2969 97bd 1cd0 f03c
00000100: 5932 323d 3103 7cbd 5686 37bc 6129 363c
00000110: 4a82 2bbd 630e 203d 9261 063c 4578 2c3d
00000120: 6672 07bd bb88 e9bc d456 c4bc 950d 8c3b
00000130: e2b2 1abd a712 623d baf1 a5bd fed1 343c
00000140: 3a56 98bd fcec cbbb af93 7d3d 292e 783c
00000150: 2324 eabc 6557 a7bc 1ed1 b13d 859f 92bd
00000160: e84b bd3b ddf9 a83d 5fb4 1e3d 032d a7bd
00000170: a66a 823d 0d95 09bd 3c79 d139 378c 8a3d
00000180: b98a 1a3d 5ee3 9dbd d73c 9bbc 9e80 ffbc
00000190: 68e0 86bd a5e4 5b3d b90f a2bd cb37 5b3d
000001a0: 1a2d 40bc f7f0 32bd ede3 65bd 2113 ab3d
000001b0: 5293 5bbc 1596 783d dfd4 8b3d 3726 223d
000001c0: 997d 77bd 3240 803d 7527 5abc 19d0 b2bc
000001d0: 0f87 9d3d 77dc 1abd 0b2a eabc 8f8f b6bc
000001e0: c47e 293d 51e5 cf3c 4731 2ebc 753b 903d
000001f0: ba64 3cbd 310b 1abd 1369 a5bd 495d 71bd
00000200: b911 143d 0db5 383c 42f6 81bb 941c 683d
00000210: 3141 b73d 02c3 c43c 74b4 89bd b6bf 653d
00000220: 81e0 83bd ee63 acbd 1897 1f3d e030 853d
00000230: 73df 1fbd 7842 4abd dc98 febb 3e31 a03d
00000240: cc50 7f3d e76b 53bd 48a4 973c acd2 833c
00000250: 30d0 8dbd 17f7 173d cd42 9239 997c 60bd
00000260: f8ca e73b 4019 67bd 494c dabb 377d 86bd
00000270: 54ce b1bd ce53 7c3d bea5 313c 7680 5e3d
00000280: c5ef 383d 9a38 6c3c 3537 4e3c d683 23bd
00000290: 1c0b 0bbd 2a4a 863d 4eea 88bc 9fc4 e73c
000002a0: 1310 b2bd d5ba a03c bd9f 7ebb 1ef3 a73d
000002b0: 2833 2cbd ce8c e1bc ec18 573d 7d37 d6bc
000002c0: 233e 77bd ec27 03bd e073 9cbc e2a2 8cbb
000002d0: f082 ea3c d300 4f3b 93c5 f03c 0f3a 193d
000002e0: 1af9 debb e4a5 d23c a013 febc f388 513b
000002f0: 504a 4c3c ade7 dcbc 7852 96bd 2de8 b0bd
00000300: 921c aebd f191 54bc 5d20 95bd 39e6 abbc
00000310: e348 c73d af66 e43c 248d 25bd cfec 973d
00000320: f56f 0cbd 3ffd 42bd 42da 73bd 9d4b 7fbd
00000330: 0d99 71bd d3aa 34bc 325b 83bd 0d3e a7bc
00000340: 88c6 8a3d c9d7 513c f50c 7fbc fc5f 123d
00000350: ffc2 893d 50fc 75bd d935 43bd a5fa 183d
00000360: 3d00 8b3d 6713 5dbd d1b6 073d e71e 97bd
00000370: 4f93 bb3d e8eb 1bbd 731d 97bd 5cbc 86bd
00000380: c352 a7bd 4f92 3dbd 261a 643d d0de f73c
00000390: 661f ae3d 5ebf 493d 6fea 3c3d 0530 063b
000003a0: 42c5 d4bb dc61 20bc 5c28 c43c ce26 8c3d
000003b0: 04f6 acbd 8614 623d b3d5 8bbd 1e0d af3a
000003c0: fa4f 96bd 1515 fcbc 2d44 613d 8441 7e3d
000003d0: e36a 1c3d 8055 3ebd 492f 83bc 05f1 4bbd
000003e0: 6e0d 413d de73 abbc 5a05 83bc 05cd d83c
000003f0: bb3e 85bd 727c a43d 5de2 7a3d 0d91 18bc
0.053366065 -0.07798109 -0.034806512 -0.07890189 0.02490519 0.031092867 -0.04517868 -0.06439095
-0.074134655 0.08029479 0.0021672752 -0.020592416 0.057288427 0.01815191 0.05942971 0.015696244
0.01913552 0.026146656 -0.05212207 0.01839437 0.0692028 -0.01539729 0.06332095 0.00875445
-0.010442031 0.021303056 0.026683353 0.0745417 -0.010684644 -0.08787227 -0.03215931 0.00017171082
-0.020049917 -0.054313626 -0.068024315 -0.02802247 -0.010730418 -0.020351289 0.06080461 -0.059825514
-0.040890995 0.0476731 0.06341872 0.002744774 0.037332326 -0.019220406 -0.024808066 0.06452772
-0.04294901 -0.0046442845 0.037984803 0.036042 -0.034725565 -0.03959994 -0.02730565 0.021448003
0.02280428 0.082598895 0.07570569 0.011722078 0.02088631 0.022431126 -0.073931046 0.02939611
0.043505047 -0.06152648 -0.011201462 0.011118264 -0.0418723 0.03907622 0.0082019735 0.042106885
-0.033068083 -0.028507581 -0.023967184 0.00427408 -0.037768252 0.05519357 -0.08102746 0.011036394
-0.074383214 -0.006223319 0.06190842 0.015147724 -0.028581684 -0.020427415 0.08682464 -0.07159332
0.005776871 0.08250783 0.038746234 -0.08162882 0.06367998 -0.03358941 0.00039953913 0.06765025
0.037729952 -0.077093825 -0.01894991 -0.03118926 -0.06585771 0.05368485 -0.07913155 0.053520005
-0.011729503 -0.043686833 -0.05612557 0.08353258 -0.013401823 0.060690004 0.06827711 0.039587226
-0.060422514 0.06262244 -0.013315071 -0.021827744 0.07691776 -0.037807908 -0.0285845 -0.022285251
0.04138066 0.025377901 -0.010631866 0.070425905 -0.045994498 -0.03760833 -0.08076682 -0.058926854
0.036149714 0.011273635 -0.003966124 0.05666788 0.08947981 0.024018768 -0.06723872 0.056091033
-0.06439305 -0.084174976 0.038962454 0.06503463 -0.039031457 -0.049379796 -0.007769687 0.07821892
0.062332913 -0.051616576 0.018510953 0.016091667 -0.06924474 0.037100878 0.0002789706 -0.054806326
0.0070737563 -0.056420565 -0.006661926 -0.065668516 -0.08681932 0.06160336 0.010842739 0.05432173
0.045150537 0.014417792 0.012586405 -0.03992065 -0.03394614 0.065571144 -0.016713288 0.028291998
-0.08694472 0.019620338 -0.0038852536 0.08200668 -0.042040974 -0.027532961 0.052514 -0.026149506
-0.060361993 -0.032020494 -0.019098222 -0.004291878 0.028626889 0.0031586185 0.029391086 0.037408885
-0.0068045976 0.025713868 -0.031015217 0.0031972497 0.012468889 -0.02696594 -0.073399484 -0.08638034
-0.08501543 -0.012974248 -0.072815634 -0.020983802 0.09730699 0.027880995 -0.040417805 0.074182145
-0.034286458 -0.047604796 -0.05953432 -0.06232797 -0.05898385 -0.011027056 -0.064138785 -0.02041533
0.06776148 0.012807795 -0.015567054 0.03573607 0.06726646 -0.060055077 -0.047658775 0.03734841
0.06787155 -0.05397358 0.03313333 -0.07378941 0.09158956 -0.038066775 -0.07378664 -0.065788954
-0.081700824 -0.04628211 0.055689 0.030257612 0.085020825 0.049254768 0.04612201 0.00204754
-0.0064932415 -0.0097889565 0.023945026 0.06843339 -0.08445361 0.055195354 -0.06827869 0.001335535
-0.07339473 -0.030771771 0.054996658 0.0620742 0.038187873 -0.046468258 -0.016013758 -0.0497904
0.04713195 -0.020929273 -0.015993763 0.026464948 -0.065061055 0.080315486 0.061251033 -0.009311927

proj_d.2.bias f4 [128]
00000000: 6d92 94bd 315a 6e3d 4da0 553c 5442 b6bd
00000010: 4f03 39bd 865a a6bd 33ca 523d ea60 46bd
00000020: fb36 8b3d af4a 983d 301a 2c3d 765d 993d
00000030: 503e 093d 08a4 3abd 6d3a e4bc 0a51 3cbb
00000040: f7e0 a43d 617a 81bd a5fa 02bd fe87 9fbd
00000050: 3a39 aebd c1cc 7f3c e22f 6b3d 0a7a 9dbd
00000060: 6d6c 193d 980d a5bd f4bd 8f3d dcd4 283d
00000070: de17 2abd 99e9 083d fb28 423d eba5 0cbd
00000080: 2b0d 03bb f257 403d 9592 95bd 2d29 39bc
00000090: bed8 163d 8d1d c63b 1512 ab3d 3246 033d
000000a0: 1304 08bb 295c 653c b45a 713d ae1f cdbc
000000b0: 4dd9 2fbd 64e8 86bd ec1b 823d 08b2 cc3b
000000c0: 1817 99bd f215 533d b92d 4a3d e024 1a3d
000000d0: 178d 7ebc a980 7d3d dfe1 7fbd 7b8b 50bd
000000e0: c34c 86bd 9353 38bb 6945 8c3d 18ed 5e3d
000000f0: 2559 acbd e24c 35bc 10f0 823d 1c91 15bd
00000100: d02c 32bd 7f3c 4b3d f454 ab3d c3e6 3dbd
00000110: 3493 053d f690 a9bd 4797 df3c 355c 58bd
00000120: 6873 93bd 2049 91bd 33bf af3d 59b7 5d3d
00000130: a9ad 9abd 0bc6 853d a1b7 383d 48ec 203c
00000140: 4669 97bd 375b 34bd 0224 d83c 221b 1ebd
00000150: 84c1 55bd 13f4 a33d 9d29 583d a8c9 7a3d
00000160: f952 0f3d 6414 8e3c 3ebf 7abd 84ee 3abd
00000170: 507e 63bd 5c51 763d 1c10 70bd 89be 143c
00000180: e9ad 713d 526a 29bd 4112 a63d 4797 8cbc
00000190: c01c 843c abe1 5e3d ab50 94bd f7b2 f7bc
000001a0: b3a3 853d e030 89bd 681e 183d 6436 84bd
000001b0: 875b c8bc 54e7 50bc d545 e93c ab4e 72bd
000001c0: 621b a53d 0dd5 9dbd 919c 643b cf6d 27bd
000001d0: 749e a63d 24c7 9d3d 9e94 adbd 3ac4 7abd
000001e0: 6923 b63d d670 3dbc 1ce4 d4bc 575f 8d3d
000001f0: b1c7 2cbd 7544 4d3d 2e79 8e3d be4b 05bd
-0.07254491 0.058191482 0.013038707 -0.0889937 -0.04516917 -0.08122735 0.051462363 -0.04843227
0.06797596 0.0743612 0.04201716 0.074885294 0.03350669 -0.04556659 -0.02785989 -0.0028734826
0.08050721 -0.0632217 -0.031977315 -0.0778961 -0.08507009 0.015612782 0.05741871 -0.07689293
0.03745692 -0.080592334 0.070186526 0.041218624 -0.041526668 0.0334259 0.047402363 -0.03433792
-0.0019996862 0.04695887 -0.07303349 -0.011301321 0.036827795 0.006046003 0.08353058 0.032049365
-0.0020754382 0.0139990235 0.058924392 -0.02503952 -0.042931844 -0.06587294 0.06352982 0.006246809
-0.07475108 0.0515346 0.04936001 0.037632823 -0.015536568 0.061890278 -0.062471267 -0.05091427
-0.0655761 -0.0028125986 0.068491764 0.05442533 -0.084154405 -0.011065694 0.063934445 -0.03651534
-0.043499768 0.04961824 0.08365813 -0.04636265 0.032611087 -0.08279602 0.027293814 -0.05282231
-0.07199746 -0.070940256 0.0858139 0.054129932 -0.07552654 0.06531914 0.045096997 0.009821959
-0.07393126 -0.0440323 0.026384357 -0.038600095 -0.052186504 0.08005538 0.05277406 0.06122747
0.03499124 0.017343707 -0.06121754 -0.045637622 -0.055540383 0.060136184 -0.058609113 0.00907863
0.059003744 -0.04136116 0.081089504 -0.017161978 0.01612699 0.054414432 -0.07241949 -0.030236704
0.06525364 -0.06698775 0.037138373 -0.06455687 -0.024457706 -0.012750465 0.028475681 -0.059157055
0.080618635 -0.07706652 0.003488336 -0.040876206 0.08135691 0.07703999 -0.08475612 -0.061222292
0.08893473 -0.011562547 -0.025987677 0.0690295 -0.042182628 0.050114114 0.06956707 -0.032542937

proj_n.0.weight f4 [128, 768]
00000000: 1797 813c 5d87 ecbb a798 2d3c f9c2 a33c
00000010: 06b6 52bc 7799 d33c 6729 aa3c 6653 013d
00000020: 45ad 0a3d 37ac f63b d392 9abc 260f 48bc
00000030: b3f2 c73c ae22 afb8 c92c d7bc c6cf adbc
00000040: 5938 e93c f26b abbb 239b febc 1557 5abc
00000050: 8535 63ba 01db a0bc bdb1 a2bc aea8 c23c
00000060: 796b 10bd 6d23 b2bc f4b0 743c 38dc 70bc
00000070: f898 7c3c 6ebd 91ba 3bb8 16bb 535e 2e3a
00000080: 5871 9e3a d8ee 823c 6b73 ed3c 4884 ea3b
00000090: 34c3 d3bc 884e f93c b500 203b 9d31 653b
000000a0: 8bb0 b1b9 982f cdba 0906 e23b 5195 ca3c
000000b0: 3b07 31bc f138 e0bc 42d2 d43c f5d5 d6bc
000000c0: 03a5 c43c 9fbd d6bc e815 fc3c 0919 40bb
000000d0: 8db7 d33c d59c d43c b611 d8bc 54df 7abc
000000e0: 3448 de3c b4b6 bcbb 54f9 cabc 8a4d 533c
000000f0: 90c1 f9b9 eca9 b23c e419 813c 4470 7f3c
00000100: 831e 963c 806e f13c b06e 29bc aacf 223c
00000110: ef62 b23c 6716 523c b39e db3c e1de 163c
00000120: 534d 3dba 2299 143b 093b f1bc 659d fbbc
00000130: f670 99bb 68db 41bc 21c3 c93b c006 7fbc
00000140: 1283 e13c dbd4 f6bc d6f7 d63b a616 103c
00000150: e902 7f3b e2b5 5fbc 46a0 03bb 96a6 4ebc
00000160: 8b2e f9bb d73e 10bd e4e1 10bc ea8c 3e39
00000170: 1e97 a1bc 549d db3c 6ffe e93c 0f6a b13c
00000180: f268 0bbd 14e3 a9bc 547b 0c3d aabd 82bc
00000190: dfce 04bb f763 92bc 05dc 713c fae8 953c
000001a0: 7e59 ecbc e28e 203c a9af e23b 375f dfbc
000001b0: fd3c e33c 34b7 0f3d a6ab f83c ad55 d53c
000001c0: 2fd9 b1bc 264f d83c 5918 2a3c 71a5 963b
000001d0: 1950 64bc c9d9 d23c 797d e3bc 37f9 93bc
000001e0: 6f11 073d b641 bbbc 7dfc f9bb 5377 433c
000001f0: 6624 eaba 3e55 4dbc f195 b4bc f922 113d
00000200: 455d 09bd 1559 053d 509c 163d 3c0a 0ebd
00000210: 7da6 603c 7787 393b d2f8 003c 598d a23b
00000220: e6ca 6d3c 1343 84bc 780b 863c d0c3 49bc
00000230: 72c0 833c 6783 3e3b 4092 a63a 48ad 1f3c
00000240: 11f6 ea3c 7b1d 07bd c8f0 d83c c8a9 32bd
00000250: 9934 3bbc 6e09 db3c 0801 1fbd e6de b2bc
00000260: f87c e83c 500a e3bc bbee f6bb 5309 343c
00000270: 763b 333c 39f8 0ebc bacc b23b 58ab 043d
00000280: 9c69 d6bc aba5 05bd ec85 ca3c cc97 bbbc
00000290: fed3 2cbc e34c a7bb c468 39bc ff87 8d3b
000002a0: d18b 9fbc 9614 593c eef4 38bc 354e c3bb
000002b0: b5c6 0bbd a372 6f3c f84d f83c 070b bfbc
000002c0: 5728 4fbc 286f 11bd 7286 01bd 6e34 d13c
000002d0: b77e 053d e8fb 783c 68cf a4bc f4a9 db3c
000002e0: 0331 3e3c 7480 873c 474c 873c 4b3a 9abb
000002f0: b9c0 c03c 686b d8bc 0672 66bb f8c6 a73c
00000300: e4cf b73c a759 dbbc b3c4 11bd 15a9 da3c
00000310: 1b9d cd3c cb7e 99b9 df73 d93c 0637 f9bc
00000320: 024f 833a c469 21bd 009b 9c3c 65d4 90bc
00000330: b598 a73c d49f 39bc dce5 8bbc 5a48 d03c
00000340: d3a8 19bd 7d1e 833c 0214 07bd 4a7e fdba
00000350: 5a6c dc3b 9105 37bc 50fc a7bc 9b01 f2bb
00000360: dac6 1b3c 84f0 c9bc d08b e43c 095b 98bc
00000370: aa61 07bd 31a1 5f3b 5c6d b9bc 4ce2 213c
00000380: 2265 063d 15da 02bd 616a 4a3a 2be4 aebb
00000390: 7cb2 a9bc 841c 123d 6db2 443c a333 123d
000003a0: e03e 03bc 7e66 bcbc faf5 72bc 9e3c c03c
000003b0: 70b5 203d 0a16 183d f283 583b 9220 fabc
000003c0: 9af6 e73c 7666 a43c 49e5 7c3c 3e50 953c
000003d0: fb3a c6bc 840c 6b3c de08 5dbc 209a 9d3c
000003e0: 3123 573c 923f 2d3c 1053 e0bb 671e 0cbc
000003f0: 911f 19bb 7483 e1bc 2aea 03bd ae08 a63c
0.015819116 -0.007218285 0.010595477 0.019990431 -0.012860781 0.025830014 0.020771695 0.031573676
0.03385665 0.007527854 -0.01886884 -0.012210643 0.02440772 -8.35111e-05 -0.026266472 -0.021217238
0.028469251 -0.005231374 -0.031079834 -0.013326426 -0.0008667338 -0.01963568 -0.019860143 0.023762073
-0.035258744 -0.021745408 0.014934767 -0.014700942 0.01541733 -0.0011119077 -0.0022997994 0.00066516286
0.0012088222 0.01598303 0.0289857 0.0071568824 -0.025849916 0.030432954 0.0024414484 0.0034972199
-0.00033891606 -0.0015654443 0.006897692 0.024729403 -0.0108049465 -0.027370902 0.025979165 -0.02622507
0.024004465 -0.026213465 0.030772164 -0.0029311797 0.02584436 0.02595369 -0.026375633 -0.015312035
0.027134039 -0.0057590846 -0.024777092 0.012896905 -0.00047637196 0.02180954 0.015759416 0.015590731
0.018325096 0.029471636 -0.010341331 0.009937206 0.02177569 0.012822724 0.026809072 0.009208412
-0.00072213 0.0022674282 -0.029447095 -0.0307147 -0.0046826554 -0.011832096 0.0061572944 -0.015565574
0.02752832 -0.030130794 0.006560306 0.008794462 0.0038911647 -0.013654204 -0.0020084544 -0.012612959
-0.0076044253 -0.03521618 -0.008842919 0.00018172307 -0.019725379 0.026808418 0.028563706 0.021657018
-0.03403563 -0.020738162 0.034297302 -0.01595958 -0.0020264906 -0.017869933 0.014761929 0.018299568
-0.028851267 0.009799691 0.006917913 -0.027267082 0.027739042 0.035086825 0.030355286 0.02604183
-0.021710007 0.026404928 0.0103817815 0.004597359 -0.013935112 0.025738614 -0.027769791 -0.01806317
0.03297561 -0.022858482 -0.007628976 0.011930305 -0.0017863631 -0.01253253 -0.022044154 0.035433743
-0.033536214 0.03255566 0.036770165 -0.03467773 0.013711569 0.0028309503 0.007871823 0.0049606976
0.014513707 -0.016145265 0.01636289 -0.012314752 0.016082976 0.002907002 0.0012708381 0.009745903
0.028681787 -0.0329871 0.026482001 -0.043618947 -0.0114261145 0.026737895 -0.038819343 -0.021834802
0.028379902 -0.027714878 -0.007535783 0.010988551 0.01093947 -0.008726173 0.005456534 0.03238997
-0.026173405 -0.032628696 0.024722062 -0.02289953 -0.01054859 -0.005105601 -0.011316482 0.0043191905
-0.01947585 0.013249537 -0.011288865 -0.0059602507 -0.03412505 0.014614734 0.030310616 -0.023320688
-0.012643895 -0.035506397 -0.031622358 0.025537696 0.032591548 0.015196778 -0.02011843 0.026814438
0.011608365 0.016540743 0.016515864 -0.004706656 0.023529397 -0.026418403 -0.0035163178 0.020480618
0.022437997 -0.026776148 -0.035587978 0.026691953 0.025099328 -0.00029276902 0.02654451 -0.030421745
0.0010018053 -0.039407507 0.019116879 -0.017679403 0.020458559 -0.01132961 -0.017077379 0.025425125
-0.03751452 0.016005749 -0.032978065 -0.0019340005 0.0067267837 -0.011170761 -0.020506054 -0.0073854453
0.009507859 -0.02465082 0.027898699 -0.018598096 -0.033052124 0.0034123177 -0.022635154 0.009880614
0.03281129 -0.03194626 0.000772154 -0.0053372583 -0.02071499 0.035671726 0.012005431 0.035693776
-0.008010596 -0.02299809 -0.014829153 0.023466405 0.039235532 0.037130393 0.003303763 -0.030533109
0.028315831 0.020068388 0.015435525 0.018226739 -0.024198046 0.014346246 -0.013490884 0.019238532
0.013130949 0.010574238 -0.0068458393 -0.00855217 -0.0023364762 -0.027528502 -0.032205738 0.02026781

proj_n.0.bias f4 [128]
00000000: a0a9 afbb e5bf 74bc cc2c b93c bffe 643b
00000010: 34ce c0bc 75dd 69bc 9e49 e4bb 345f b8bc
00000020: 3721 f8bc f5bd cebb d642 2b3c 17e8 29bc
00000030: 4306 313c 6865 003d 4b1b e03c 5a05 003d
00000040: ab79 d6bc 26a8 f03c c18f 8abc f910 dfbc
00000050: fe60 febc abaf 6bbb f318 c4bc 579e 043c
00000060: 15fb 8a3c cec8 5f3c 9984 1ebc 4d96 c3bc
00000070: fc65 82bc 360e 113c 4813 713c a0e5 1dbc
00000080: a153 0ebd 149c 173c 823b b53c 2736 303c
00000090: 1c17 d6bb 731e 7f3c 5b9d ef3c 73e6 d2bc
000000a0: 0425 cebc 0e80 55bc e8f3 44bc 26be 5cb9
000000b0: c102 e13c a203 c5ba ca96 a83b f9c1 a7bc
000000c0: e057 fdba f000 0ebd 4b87 dc3c c360 cd3c
000000d0: 4dc4 24bc 2d42 b43c d4a7 bbbb a23f 25bb
000000e0: d2a6 063c 4d4e 24bc bd2f 153d a8f1 993c
000000f0: 6d7f 883c 0adb 833b f60b a3bc 0bd5 683c
00000100: 28bd e5bc d73f ef3c 3bc0 d03b 6d5b ff3c
00000110: c8bf cf3c f519 51bc a793 b2bc 38d6 053d
00000120: 5b41 fbbc c98c edbc 0bdc 36bc b05f 273b
00000130: 6145 91bc 7236 d8bb 58ce ed3b 9801 083d
00000140: 87a2 f7bc dc91 b93b f699 e13c c1b6 9cbc
00000150: d4f3 88bc 2745 0a3d f8e1 01bc 8b9e 67bc
00000160: 70c3 12bb c596 093d ad1f 8f3c 66cd 313c
00000170: 4ff4 c13b e899 eebc dfa1 5fbc c4a8 433c
00000180: ca63 0e3d 852a 49bc 2e6f 923c 82f4 f7bb
00000190: 3ace c3bc 1dcc 81bc 1174 b0bc 17c8 e7bc
000001a0: dcbd 09bd 2377 393c 3651 fb3c 1af4 703c
000001b0: e6ec b53c 5206 5fbb f80f f43c 5dd3 09bc
000001c0: 9af1 09bd 4eb4 d9bc a5a2 b23c 6c1b 31bc
000001d0: 7e86 eebc a96a c33a 1ff2 893b 2e61 ddbc
000001e0: 85be 673c f229 bcbc e756 fdbc 7c29 f6bc
000001f0: 7704 d6bc 7f5d ef3c 304b 953c 6625 0f3d
-0.005360797 -0.014938329 0.022604369 0.003494188 -0.023535825 -0.014273991 -0.0069667837 -0.022506334
-0.030289276 -0.0063092657 0.010452947 -0.010370276 0.010804716 0.03134671 0.027356764 0.031255104
-0.026181063 0.029377054 -0.01691425 -0.027229773 -0.031052109 -0.003596286 -0.023937678 0.008094392
0.016965428 0.013658715 -0.009675168 -0.02387538 -0.01591777 0.008853486 0.01471407 -0.009637266
-0.034747723 0.0092535205 0.022123102 0.010755098 -0.0065335166 0.0155712245 0.029249838 -0.025744652
-0.025164135 -0.013031019 -0.012021042 -0.00021051671 0.027467133 -0.001503099 0.0051449286 -0.020478236
-0.0019328557 -0.034668863 0.026919981 0.025070554 -0.010056567 0.022004211 -0.005726794 -0.002521493
0.008218484 -0.010028434 0.03642248 0.018791988 0.016662324 0.004023914 -0.019903164 0.01421095
-0.028044298 0.029205246 0.006370572 0.031171525 0.025360003 -0.012762536 -0.021798922 0.032674998
-0.030670812 -0.028997796 -0.011160861 0.0025539212 -0.017733278 -0.0065982873 0.007257264 0.033204645
-0.030228866 0.0056631397 0.027539235 -0.019130113 -0.016717829 0.033757355 -0.00792741 -0.014136921
-0.0022394322 0.03359105 0.017471159 0.010852193 0.0059190164 -0.029126123 -0.013649433 0.011942092
0.034763135 -0.012278204 0.01787528 -0.0075669894 -0.023902047 -0.0158444 -0.02153972 -0.028293652
-0.03362833 0.011319908 0.030678373 0.014706636 0.022207689 -0.0034030867 0.02979277 -0.008412209
-0.033677675 -0.026575234 0.02180607 -0.010809761 -0.029116865 0.0014909107 0.0042097713 -0.027023878
0.0141445445 -0.02296922 -0.030925227 -0.030049078 -0.026125176 0.029219387 0.018224329 0.034947775

proj_n.2.weight f4 [128, 128]
00000000: ea36 8a3c de52 ad3d 8844 df3c 491e c03c
00000010: b17b c33b 0852 813d d9c0 31bd b38c ab3d
00000020: 9705 9c3d 9692 a9bd a14d 0dbb 52a0 da3c
00000030: 61d2 693d e54b c9bc 622f a73c 32f6 aabd
00000040: 613c 8ebd 1736 b13d 3bf2 adbd aae4 07bd
00000050: 45fb 05bd 562a 82bd c217 943d b49e b1bd
00000060: fb3b 003c d35a a63d 3018 a6bd 1e13 453b
00000070: 1be1 f03c fbe9 a8bd 389b 04bd aafd 8dbd
00000080: 4f1f 443d 55df 8c3d 60ec a83d 30d5 c93b
00000090: 6901 463d 5bec 8a3d 442a 0e3d 2041 993d
000000a0: 0999 493b d917 8d3d a8ab 67bd 65bf b2bd
000000b0: 54ed aabd b518 90bc 1330 44bc 6679 893c
000000c0: 6034 dd3b 4c2c 13bd f324 5c3d 01d4 8abd
000000d0: 3d41 d9bc 0c67 0e3d ae58 fabc 51b8 9cbd
000000e0: 1605 48bc 714e 9b3c b7e3 42bb 0f2a acbd
000000f0: ac8e 99bd a49b 15bd fc0f 7bbc f492 e23c
00000100: fc20 b33d b4e9 36bd 1797 e13c ca6f 7a3d
00000110: 695d b23d de62 a2bd 5dde ec3c f5f8 1e3d
00000120: 91c3 4c3d f91b 843a 2559 91bd 40d0 a83d
00000130: 606c a1bd 9157 7c3d 8716 2fbc 19f4 75bc
00000140: 8f36 96bc cb4e 9bbd b224 9c3d ac6d a13d
00000150: 55ab f6bc 1654 4b3d e897 683d 8873 be3d
00000160: a9b6 89bd ab6c 923d 7c07 b13d 27dd 49bd
00000170: 7c2c a2bd 54c3 9539 5aa1 e2bc 2ac6 8b3c
00000180: 69b0 0d3c c0b7 81bd d681 5dbd 3d45 05bd
00000190: 959e aa3d 748f 6d3c 92de 973d 3934 3e3d
000001a0: 10e7 1f3d 810f 80bd c517 c13b c60d 09bd
000001b0: 68e1 9dbc 8124 043d 1da3 64bb e052 d2bc
000001c0: 19d1 27bd 7aca 3d3d e565 8dbb 0e45 f23c
000001d0: 6e1a 6a3d e2ae 4d3d b1de 7ebd b177 193c
000001e0: 939d 05bd aaac 303d ac7b a63c 71cb 8f3d
000001f0: 3b10 d9bc 069d a13d b113 f73c a25c f4bc
00000200: 288b 183c 9d07 313d 97f8 353d 9714 9fbd
00000210: e071 143d f0dc 92bd d233 51bd 83c1 25bd
00000220: c017 8a3d d66e 333c c190 313d 88fe b23d
00000230: ded5 9e3d 30cd 5e3d 0085 97bd b091 483d
00000240: 06a2 923d bade 4ebd a326 39bd 0933 62bc
00000250: 33ea 4d3d 7dd8 87bd 655f 003d f889 8f3d
00000260: ee1a aa3c 40df 943d fd8c c4bc bdf8 9bbd
00000270: 099a 333d dbeb 91bd 1726 5e3d 0d76 7f3c
00000280: b071 d13b cbd2 94bc 5f42 12bd 1e07 7cbd
00000290: 079c 683d 894a aabd 64a9 9dbd bf9a b13d
000002a0: 8322 94bd 1189 933d 6cb0 ab3d 2efb 553d
000002b0: ecbb 34bc 841a c13c 9873 3ebd 389d 343d
000002c0: 19dd 5b3b c8dd c03c 2d55 143d f389 1a3d
000002d0: b5e7 28bd 5291 953d 8f71 16bd 8c40 8b3d
000002e0: 717f 17bd 600a 57bc 96ad 57bd 2551 23bd
000002f0: bdca 87bd e704 613c 3c97 7f3d cf9b 193d
00000300: 9581 4dbd f71d 6bbd 99a2 763d 4156 d4ba
00000310: de1c 813d 15d6 823b a8a5 9c3c d5e0 8bbd
00000320: 0791 813c e357 7abd a5b9 dcbb dc8d 80bd
00000330: 57b2 08bc aac7 aabc c49e d93b 557c 91bc
00000340: 7483 843d 9130 9dbb 35c9 583d 52e7 913d
00000350: 2149 903d e1e5 acbc 1122 6a3d 78ac 74bd
00000360: 3256 0e3d d290 bbbd db4f 643b bad9 80bd
00000370: 8692 60bc 5cd3 2c3d bcbc f23c 8bbe 9d3d
00000380: 9f87 763c 0c8e 5a3d c76f 513d bd3a 4e3d
00000390: d0f6 063d 2da7 19bd f8b0 d83c b261 9b3c
000003a0: a5e8 36bd dc04 993d 7ac2 a4bc e456 a8bd
000003b0: da9b 803d b419 5fbd 9aae a5bd 2c0c 863b
000003c0: cf5f 883d 8657 a63d 742b 2e3c 6361 5e3d
000003d0: c497 c1bd 0812 a3bd 69d2 913b a2ea f7bb
000003e0: 7fe5 123d 1f5d 3f3d 9737 ea3c 99ea ff3c
000003f0: 64b3 3bbd 1388 8e3d 2b84 203d c477 a53d
0.016871888 0.08463071 0.027254358 0.023451941 0.005965673 0.06314474 -0.043396804 0.083764456
0.07618254 -0.08279912 -0.0021561163 0.026687775 0.0570854 -0.024572322 0.020408336 -0.08347739
-0.0694511 0.08652895 -0.084934674 -0.033177055 -0.032710332 -0.06355731 0.07231094 -0.08672848
0.0078268 0.08122792 -0.08110082 0.003007121 0.029404214 -0.08247753 -0.03237459 -0.06933148
0.04788142 0.06878535 0.0824821 0.006159447 0.04834119 0.067833625 0.034708276 0.07483125
0.0030761382 0.06889314 -0.05656019 -0.08727912 -0.08346048 -0.017589906 -0.011974352 0.01678152
0.0067506284 -0.035930917 0.053746175 -0.06778718 -0.026520366 0.034766242 -0.030559864 -0.07652343
-0.012208244 0.018958302 -0.002973778 -0.084064595 -0.074979156 -0.036525384 -0.015323635 0.027657963
0.08746526 -0.04465647 0.027537866 0.061141767 0.08709223 -0.07929014 0.028914625 0.038811643
0.049991194 0.0010079137 -0.07097081 0.082428455 -0.07881999 0.061606947 -0.010686523 -0.015011811
-0.018336562 -0.07583388 0.076241866 0.078822464 -0.030110994 0.049640737 0.056785494 0.092993796
-0.06724293 0.07149633 0.08644006 -0.049283173 -0.07918641 0.00028565025 -0.027664829 0.017062265
0.0086480165 -0.06333876 -0.0540789 -0.032536734 0.08331028 0.014499534 0.07415499 0.046436522
0.039038718 -0.06252957 0.005892726 -0.0334604 -0.019272521 0.032261375 -0.0034887262 -0.025674284
-0.040970895 0.046335675 -0.0043151253 0.029573943 0.05715411 0.05021561 -0.062224094 0.009366916
-0.032620978 0.043133415 0.020322643 0.07021225 -0.026496997 0.07891278 0.030160757 -0.029829327
0.009310521 0.04322015 0.044426527 -0.07767599 0.036241412 -0.07171047 -0.05107481 -0.04046775
0.06742811 0.010951718 0.04335094 0.08739954 0.07755636 0.0543949 -0.073984146 0.048967063
0.0715981 -0.050505377 -0.045202862 -0.013806113 0.050272178 -0.06633089 0.031340975 0.07008737
0.020764794 0.07269144 -0.02399301 -0.076158024 0.04384807 -0.07125064 0.054235544 0.01559211
0.0063917264 -0.01816692 -0.035707828 -0.061530225 0.056789424 -0.08314998 -0.07698324 0.086720936
-0.07233145 0.07203878 0.08383259 0.052241497 -0.011031132 0.023572214 -0.046496958 0.044095248
0.0033548533 0.023543254 0.036214042 0.037729215 -0.041236598 0.07303108 -0.03672939 0.06799421
-0.036986772 -0.013125032 -0.05265578 -0.039872307 -0.06630466 0.013734079 0.062400088 0.037502106
-0.050172407 -0.057401624 0.06021366 -0.0016200022 0.06304334 0.0039928057 0.01912196 -0.06829993
0.015816225 -0.06111897 -0.0067359977 -0.062770575 -0.008343301 -0.02084716 0.006641241 -0.017759481
0.06470385 -0.0047970493 0.05292626 0.07124199 0.07045198 -0.021105709 0.057161395 -0.05973479
0.03475017 -0.09158482 0.0034837637 -0.06291528 -0.013706809 0.042193756 0.029631011 0.07702359
0.015046983 0.053358123 0.05113199 0.050348986 0.032950222 -0.037512947 0.026451573 0.018967483
-0.04465546 0.0747163 -0.020112265 -0.08219698 0.06279726 -0.05446787 -0.08089943 0.0040908065
0.06658899 0.081221625 0.010630477 0.054292094 -0.09452775 -0.079624236 0.0044501317 -0.007565812
0.035863396 0.046719667 0.02859096 0.031239795 -0.045825377 0.06959548 0.039188545 0.08079484

proj_n.2.bias f4 [128]
00000000: 00ad a53c cf53 64bd 9109 a4bd d736 d0bb
00000010: dd69 89bc bbb2 a53d 871d 01bd b0af 52bd
00000020: 2a75 7ebd 2cff 38bd 46d4 f53c 6ab9 94bd
00000030: 42b5 6dbd a8e3 cfbc 4624 a6bd d362 bc3c
00000040: dede 7e3d ba0e 37bd 4d61 0f3d 9f12 b8bd
00000050: 0908 41bd e107 c13c 57d1 343d 5529 75bd
00000060: afe6 88bb f750 1d3d 0002 1abd e163 94bd
00000070: 3f22 fdbc 2e38 fd3b 3e15 0d3d 51bc 84bd
00000080: 8226 dcbc f552 ae3d 85d5 42bc af4f 853d
00000090: cfb4 a0bc 89ab 0abd 4db4 4cbd 6428 423d
000000a0: 0f50 8f3d c3a1 35bd ef81 88bd e628 f53c
000000b0: c73f 06bc 562a aabc 6b36 b0bd 4929 c9bc
000000c0: 939e 48bd 8900 28bd 72ee 4e3d 3af9 9cbc
000000d0: 79f2 05bd a71c c33c 56f9 7fbd ea0e 5fbd
000000e0: f8ad 7dbd 315f 0c3d 09bb baba d4a2 663d
000000f0: cdd6 e93c 2bfa a73d 047a b1bc 84b0 9a3c
00000100: 6e69 8a3c 31ac 943c d4b5 603d 00b1 a2bd
00000110: 68dd ac3c 356a a83d 9648 b63a 5c50 933d
00000120: 708a 963d b6f7 0d3d 40fe 1cbd 101a a33d
00000130: eaa2 393c a400 a03d dd13 9ebd 8096 89bd
00000140: 2195 9b3d 525a 2f3d 0bb4 7fbd b945 babc
00000150: c636 2abd 8d50 9cbd fea3 293c 84b8 523d
00000160: 181d a1bd 293b 963d a702 823d 3a30 a23d
00000170: 12eb 80bc f8d2 903d d316 a73d 6e86 1f3d
00000180: 2e02 f4bc dedf 8ebc cfff 963c c69b 273b
00000190: 08bd 1bbd c66b 55bc 8522 a9bd 8f12 e9bc
000001a0: b21c f83c c47e 99bd 1290 a43d b8a4 223d
000001b0: fad5 7c3d ebc5 983d 6b4e 02bd 8263 203d
000001c0: 7d14 1f3d 1ff2 2d3d 846b 2d3d 5178 c23c
000001d0: 0e64 903d 2a89 1bbd 0f2d 1e3d a522 5e3d
000001e0: 0f1b 833d 96fb 6b3d 16a1 a3bb 59cd 1cbd
000001f0: 379c 56bd 8e09 cd3a 0f05 7d3d f710 02bc
0.020224094 -0.05574399 -0.08009637 -0.0063541937 -0.016774112 0.08090731 -0.0315223 -0.05143708
-0.062123455 -0.045165226 0.030008446 -0.072619274 -0.05803419 -0.02537711 -0.08112387 0.022996342
0.06222426 -0.04469178 0.035004903 -0.08987927 -0.047126804 0.023563327 0.044144955 -0.05985387
-0.0041778903 0.038407292 -0.037599564 -0.07245613 -0.030900119 0.0077276444 0.034444086 -0.06481231
-0.02687383 0.085119165 -0.011891727 0.06509339 -0.019617466 -0.033854995 -0.049976636 0.0474018
0.06997692 -0.04434372 -0.06665408 0.029926728 -0.008193917 -0.02077214 -0.086041294 -0.02455582
-0.048979353 -0.041016135 0.050520368 -0.01916181 -0.032701943 0.023817373 -0.062493645 -0.054457583
-0.061933488 0.03427047 -0.0014246415 0.05630763 0.028544808 0.08202013 -0.021664627 0.018882997
0.016895976 0.018148514 0.054860905 -0.07943916 0.021101668 0.082233824 0.001390713 0.07193062
0.073506236 0.034660064 -0.03832841 0.079639554 0.011330346 0.07812622 -0.07718632 -0.06718159
0.075968035 0.042810746 -0.06242756 -0.022738324 -0.041556142 -0.07632551 0.01035404 0.0514455
-0.07866877 0.07335503 0.06348162 0.07919355 -0.01573709 0.07071489 0.0815865 0.03894656
-0.029786196 -0.017440733 0.018432526 0.0025575026 -0.03802207 -0.0130261835 -0.08258537 -0.028451232
0.03028712 -0.07494882 0.08035292 0.03970787 0.0617275 0.07459625 -0.031813066 0.039157398
0.0388379 0.042467233 0.042338863 0.023739012 0.07050334 -0.037972607 0.03861719 0.05423226
0.064016454 0.057612978 -0.004993568 -0.038281772 -0.05239507 0.0015643106 0.061772402 -0.007938615
